…
2.weight with shape torch.Size([512])\nLoading params transformer_encoder.layers.11.norm2.bias with shape torch.Size([512])\nLoading params decoder.fc.0.weight with shape torch.Size([512, 512])\nLoading params decoder.fc.0.bias with shape torch.Size([512])\nLoading params decoder.fc.2.weight with shape torch.Size([512, 512])\nLoading params decoder.fc.2.bias with shape torch.Size([512])\nLoading params decoder.fc.4.weight with shape torch.Size([1, 512])\nLoading params decoder.fc.4.bias with shape torch.Size([1])\n</pre> Out[4]: <pre>TransformerModel(\n  (encoder): GeneEncoder(\n    (embedding): Embedding(36574, 512, padding_idx=36571)\n    (enc_norm): LayerNorm((512,), eps=1e-05, elementwise_affine=True)\n  )\n  (value_encoder): ContinuousValueEncoder(\n    (dropout): Dropout(p=0.5, inplace=False)\n    (linear1): Linear(in_features=1, out_features=512, bias=True)\n    (activation): ReLU()\n    (linear2): Linear(in_features=512, out_features=512, bias=True)\n    (norm): LayerNorm((512,), eps=1e-05, elementwise_affine=True)\n  )\n  (transformer_encoder): TransformerEncoder(\n    (layers): ModuleList(\n      (0-11): 12 x TransformerEncoderLayer(\n        (self_attn): MultiheadAttention(\n          (out_proj): NonDynamicallyQuantizableLinear(in_features=512, out_features=512, bias=True)\n        )\n        (linear1): Linear(in_features=512, out_features=512, bias=True)\n        (dropout): Dropout(p=0.5, inplace=False)\n        (linear2): Linear(in_features=512, out_features=512, bias=True)\n        (norm1): LayerNorm((512,), eps=1e-05, elementwise_affine=True)\n        (norm2): LayerNorm((512,), eps=1e-05, elementwise_affine=True)\n        (dropout1): Dropout(p=0.5, inplace=False)\n        (dropout2): Dropout(p=0.5, inplace=False)\n      )\n    )\n  )\n  (decoder): ExprDecoder(\n    (fc): Sequential(\n      (0): Linear(in_features=512, out_features=512, bias=True)\n      (1): LeakyReLU(negative_slope=0.01)\n      (2): Linear(in_features=512, out_features=512, bias=True)\n      (3): LeakyReLU(negative_slope=0.01)\n      (4): Linear(in_features=512, out_features=1, bias=True)\n    )\n  )\n  (cls_decoder): ClsDecoder(\n    (_decoder): ModuleList(\n      (0): Linear(in_features=512, out_features=512, bias=True)\n      (1): ReLU()\n      (2): LayerNorm((512,), eps=1e-05, elementwise_affine=True)\n      (3): Linear(in_features=512, out_features=512, bias=True)\n      (4): ReLU()\n      (5): LayerNorm((512,), eps=1e-05, elementwise_affine=True)\n    )\n    (out_layer): Linear(in_features=512, out_features=1, bias=True)\n  )\n  (sim): Similarity(\n    (cos): CosineSimilarity()\n  )\n  (creterion_cce): CrossEntropyLoss()\n)</pre> <p>Load dataset of interest</p> In\u00a0[\u00a0]: Copied! <pre># Paths to the compressed and uncompressed files\ncompressed_file = '/ReCoDE-Gene-Network-Analysis/data/data/Bcell_filtered_compressed.h5ad.gz'\nuncompressed_file = '/ReCoDE-Gene-Net
…
2.weight with shape torch.Size([512])\nLoading params transformer_encoder.layers.11.norm2.bias with shape torch.Size([512])\nLoading params decoder.fc.0.weight with shape torch.Size([512, 512])\nLoading params decoder.fc.0.bias with shape torch.Size([512])\nLoading params decoder.fc.2.weight with shape torch.Size([512, 512])\nLoading params decoder.fc.2.bias with shape torch.Size([512])\nLoading params decoder.fc.4.weight with shape torch.Size([1, 512])\nLoading params decoder.fc.4.bias with shape torch.Size([1])\n</pre> Out[4]: <pre>TransformerModel(\n  (encoder): GeneEncoder(\n    (embedding): Embedding(36574, 512, padding_idx=36571)\n    (enc_norm): LayerNorm((512,), eps=1e-05, elementwise_affine=True)\n  )\n  (value_encoder): ContinuousValueEncoder(\n    (dropout): Dropout(p=0.5, inplace=False)\n    (linear1): Linear(in_features=1, out_features=512, bias=True)\n    (activation): ReLU()\n    (linear2): Linear(in_features=512, out_features=512, bias=True)\n    (norm): LayerNorm((512,), eps=1e-05, elementwise_affine=True)\n  )\n  (transformer_encoder): TransformerEncoder(\n    (layers): ModuleList(\n      (0-11): 12 x TransformerEncoderLayer(\n        (self_attn): MultiheadAttention(\n          (out_proj): NonDynamicallyQuantizableLinear(in_features=512, out_features=512, bias=True)\n        )\n        (linear1): Linear(in_features=512, out_features=512, bias=True)\n        (dropout): Dropout(p=0.5, inplace=False)\n        (linear2): Linear(in_features=512, out_features=512, bias=True)\n        (norm1): LayerNorm((512,), eps=1e-05, elementwise_affine=True)\n        (norm2): LayerNorm((512,), eps=1e-05, elementwise_affine=True)\n        (dropout1): Dropout(p=0.5, inplace=False)\n        (dropout2): Dropout(p=0.5, inplace=False)\n      )\n    )\n  )\n  (decoder): ExprDecoder(\n    (fc): Sequential(\n      (0): Linear(in_features=512, out_features=512, bias=True)\n      (1): LeakyReLU(negative_slope=0.01)\n      (2): Linear(in_features=512, out_features=512, bias=True)\n      (3): LeakyReLU(negative_slope=0.01)\n      (4): Linear(in_features=512, out_features=1, bias=True)\n    )\n  )\n  (cls_decoder): ClsDecoder(\n    (_decoder): ModuleList(\n      (0): Linear(in_features=512, out_features=512, bias=True)\n      (1): ReLU()\n      (2): LayerNorm((512,), eps=1e-05, elementwise_affine=True)\n      (3): Linear(in_features=512, out_features=512, bias=True)\n      (4): ReLU()\n      (5): LayerNorm((512,), eps=1e-05, elementwise_affine=True)\n    )\n    (out_layer): Linear(in_features=512, out_features=1, bias=True)\n  )\n  (sim): Similarity(\n    (cos): CosineSimilarity()\n  )\n  (creterion_cce): CrossEntropyLoss()\n)</pre> <p>Load dataset of interest.</p> In\u00a0[5]: Copied! <pre># Paths to the compressed and uncompressed files\ncompressed_file = '/ReCoDE-Gene-Network-Analysis/data/data/Bcell_filtered_compressed.h5ad.gz'\nuncompressed_file = '/ReCoDE-Gene-Network
…
